src/data.pth (torch, 5207 bytes, 6 tensors)

l1.weight f4 [8, 58]
0	0xbe0a6d33	-0.13518219
1	0xbf013a80	-0.5047989
2	0x3f004220	0.501009
3	0xbeaaab29	-0.3333371
4	0x3ebc6c95	0.36801592
5	0x3f0533a9	0.5203195
6	0x3f106708	0.56407213
7	0x3f1576f3	0.5838463
8	0x3ef9df06	0.48802966
9	0x3f30134e	0.68779457
10	0xbe1b40ff	-0.15161513
11	0xbe9363c4	-0.28787053
12	0x3e848e63	0.25889882
13	0x3efe44e4	0.49661934
14	0xbe5c35d0	-0.21504903
15	0xbed39138	-0.4132173
16	0xbe7b1ec4	-0.24523455
17	0xbe2f72ee	-0.17133686
18	0x3efa185b	0.48846707
19	0x3ec99535	0.39371648
20	0xbebba3d7	-0.36648437
21	0xbcaee221	-0.021348061
22	0xbea0b326	-0.3138668
23	0xbeb32c1d	-0.34994593
24	0xbf258053	-0.6464893
25	0x3e81cc18	0.25351024
26	0x3f27911b	0.6545579
27	0xbe8e08db	-0.2774113
28	0x3f4bb3be	0.7957114
29	0xbf12fc4d	-0.5741623
30	0x3ee60cbd	0.44931594
31	0xbefd14b5	-0.4942986
32	0x3c0a8461	0.008454413
33	0xbe13f266	-0.14447936
34	0xbd8c23bc	-0.06842753
35	0x3eef5add	0.4674901
36	0x3e2e9e18	0.17052495
37	0xbec9db5f	-0.3942518
38	0x3f06f84e	0.5272263
39	0x3ee2065c	0.44145477
40	0x3efe2d3a	0.4964388
41	0x3effcfb4	0.49963152
42	0x3f096e00	0.5368347
43	0x3dfc9cbc	0.12334582
44	0x3f3c4d56	0.73555505
45	0xbe2f236a	-0.17103353
46	0xbed0f20e	-0.40809673
47	0x3f082679	0.53183705
48	0x3bcf2079	0.0063210097
49	0xbf3053f2	-0.6887809
50	0x3d2112e6	0.039324664
51	0x3e69983d	0.2281198
52	0x3ee042d5	0.4380099
53	0x3f5d4f30	0.86448956
54	0xbeef64d6	-0.4675662
55	0x3edfc547	0.43705198
56	0x3ef2333a	0.47304708
57	0x3f246eb6	0.6423143
58	0xbee58b26	-0.44832724
59	0x3f313193	0.6921627
60	0xbef2e0e9	-0.47437218
61	0x3e919ba8	0.2843907
62	0xbb128bd6	-0.002236118
63	0xbf373843	-0.71570224
64	0xbdaff95c	-0.085924834
65	0xbf03df7a	-0.51512873
66	0xbed7032b	-0.41994604
67	0xbede9a1e	-0.43476957
68	0x3ee6cb5f	0.45077035
69	0x3eab4325	0.33449665
70	0x3f5f599f	0.87246126
71	0x3ec76b67	0.3894913
72	0x3e9e0976	0.30866593
73	0x3e993f4b	0.299311
74	0x3eb9bb4d	0.36275712
75	0x3ebe474f	0.3716378
76	0xbf31433c	-0.69243217
77	0x3e82243a	0.25418264
78	0x3f10a47f	0.56501
79	0xbd338ef8	-0.043837517
80	0x3f357d6d	0.7089451
81	0x3f2c7a30	0.67373943
82	0x3f4a93ac	0.7913158
83	0x3d4b9db2	0.049710937
84	0x3f01a514	0.50642514
85	0x3eaca2e9	0.3371804
86	0x3e48fd85	0.1962796
87	0x3f67821c	0.90432906
88	0x3dc6652b	0.09687265
89	0x3f39c03f	0.7255897
90	0xbea24b0b	-0.31697878
91	0x3eaad544	0.33365834
92	0xbe79a3ca	-0.24378887
93	0xbf048e73	-0.5177986
94	0x3f5f67a4	0.8726752
95	0x3eb3a585	0.3508722
96	0x3f37a6f6	0.7173914
97	0xbe9d54e4	-0.3072883
98	0xbe7952d2	-0.24348
99	0xbe55f908	-0.20895779
100	0x3f88f856	1.0700786
101	0xbecbb115	-0.3978354
102	0x3ec9d605	0.39421096
103	0x3ece1a7c	0.4025458
104	0x3eb6a658	0.35673785
105	0xbc87fc7d	-0.016599888
106	0x3f57b430	0.8425932
107	0xbf3746e3	-0.7159254
108	0xbe64fad2	-0.22361305
109	0x3f286e0e	0.6579293
110	0x3eea5617	0.45768806
111	0x3eaa9656	0.33317822
112	0x3e7b7b17	0.24558674
113	0x3e834f88	0.25646615
114	0xbe687df1	-0.22704293
115	0x3cae7ee8	0.021300748
116	0x3ef5cfaa	0.48009998
117	0xbc0f5f91	-0.008750812
118	0x3f16129f	0.58622164
119	0x3e9a4690	0.3013196
120	0x3f15f6bc	0.5857961
121	0xbf099371	-0.537406
122	0x3ed7fd1e	0.421853
123	0x3eff8357	0.49904892
124	0x3f1214c5	0.5706294
125	0x3ea661a7	0.32496378
126	0x3f01d6d1	0.5071841
127	0xbdb7e287	-0.089787535
128	0xbea95842	-0.33075148
129	0x3e3cffbe	0.18456933
130	0xbd555033	-0.052078437
131	0xbdb5aba7	-0.08870631
132	0x3ce777e3	0.028255409
133	0x3ef4fb80	0.4784813
134	0xbf09052f	-0.53523535
135	0x3ede678e	0.4343838
136	0x3f0c77d1	0.54870325
137	0x3ed68950	0.41901636
138	0x3f13d367	0.5774445
139	0x3f1c3f37	0.6103396
140	0x3e104f4f	0.14092754
141	0x3dca18ad	0.09867988
142	0xbd9eaeb6	-0.07748167
143	0x3ebaeb45	0.3650762
144	0x3ed14a01	0.40876773
145	0xbeace98a	-0.33771926
146	0x3e919e3a	0.2844103
147	0xbf0802e1	-0.5312939
148	0xbf04d010	-0.5187998
149	0x3d64ea17	0.055887308
150	0x3edf908f	0.43664977
151	0x3f2f6c62	0.68524754
152	0xbde41a6d	-0.11137853
153	0x3d3cb12f	0.046067413
154	0x3c98e0ae	0.018661823
155	0x3f0e71b4	0.5564225
156	0x3ee4cc05	0.44686905
157	0x3ed93284	0.42421353
158	0xbf043f3c	-0.5165899
159	0xbeef961a	-0.46794206
160	0x3eda52cb	0.4264129
161	0xbdc202c8	-0.09473187
162	0xbdd52f76	-0.10409443
163	0x3db7a7b1	0.089675315
164	0xbdc1b521	-0.09458376
165	0x3f47538b	0.7786185
166	0x3ec3a542	0.3821202
167	0xbe5e6618	-0.21718633
168	0x3ee10ad6	0.4395358
169	0x3f2fa8af	0.68616766
170	0xbe284587	-0.16432773
171	0x3efc3a44	0.49263203
172	0x3ee7040b	0.45120272
173	0x3ed8651b	0.42264637
174	0xbe93213a	-0.28736287
175	0x3eb09f2b	0.34496436
176	0xbf00383d	-0.5008581
177	0x3e5136f0	0.20431113
178	0x3e6126b1	0.21987416
179	0x3bbe761a	0.0058124186
180	0xbd902359	-0.07037992
181	0xbe95db08	-0.2926867
182	0xbed3cec0	-0.41368675
183	0xbe6c8cb6	-0.23100552
184	0x3f05376a	0.5203768
185	0xbd5fd4be	-0.054646246
186	0x3f423a3d	0.75870115
187	0x3cc468e3	0.023975795
188	0xbd4ce448	-0.050022393
189	0x3e87646d	0.26443806
190	0xbce91113	-0.028450524
191	0x3ee45018	0.44592357
192	0xbd7a114e	-0.06105166
193	0x3efc3d9a	0.49265748
194	0x3f22789f	0.63465303
195	0xbe978ee1	-0.29601195
196	0x3eeaacfe	0.45835108
197	0x3ef6231c	0.4807366
198	0x3ee2f6fe	0.44329065
199	0xbe04bb07	-0.1296197
200	0x3f086a4d	0.532872
201	0x3e7edae6	0.2488819
202	0x3eefd297	0.46840355
203	0x3e361465	0.17781217
204	0x3ab58686	0.0013849295
205	0x3f05e385	0.5230029
206	0x3caf8cfc	0.021429531
207	0xbe875c9b	-0.2643784
208	0xbd6c33cb	-0.05766658
209	0xbed407c4	-0.41412175
210	0x3f05d7ba	0.522823
211	0xbe040170	-0.12891173
212	0x3f08eb83	0.5348436
213	0xbf12064d	-0.57040864
214	0xbe23436c	-0.15943688
215	0xbe9545f3	-0.2915493
216	0x3f8674a6	1.0504348
217	0xbd8c3318	-0.06845683
218	0x3f189f1e	0.59617794
219	0xbe15566e	-0.14583752
220	0x3d2abeb9	0.041685794
221	0xbeca389a	-0.3949631
222	0x3ef45107	0.4771807
223	0xbf4f68ea	-0.8101946
224	0xbe63804c	-0.2221691
225	0x3f1251dc	0.5715616
226	0x3ed905c3	0.42387208
227	0x3ebdfc0f	0.37106368
228	0xbc5912e1	-0.01324913
229	0x3ea56e99	0.32310942
230	0xbe22fb33	-0.15916137
231	0x3e3cc5fc	0.184349
232	0x3e85156b	0.25992903
233	0x3e001770	0.1250894
234	0xbd88001d	-0.066406466
235	0x3e6ee1bf	0.23328303
236	0x3e939ea3	0.28831968
237	0xbf0f1225	-0.5588706
238	0xbb5188de	-0.0031972448
239	0xbd907378	-0.07053274
240	0xbd593597	-0.053029623
241	0xbe51491c	-0.20438045
242	0x3edae03d	0.42749205
243	0x3f23bcd0	0.6395998
244	0xbdc42e47	-0.09579139
245	0x3e64a725	0.22329386
246	0x3f382343	0.71928805
247	0x3db9eac0	0.09077978
248	0x3f1f372e	0.6219357
249	0x3ea31a37	0.31855938
250	0xbf0f1964	-0.5589812
251	0xbe5013ce	-0.20320055
252	0x3f2869cd	0.6578644
253	0x3e7589bd	0.23978324
254	0x3f2670a1	0.6501561
255	0x3f1fb166	0.62380064

l1.bias f4 [8]
0	0x3f250143	0.6445505
1	0x3f373876	0.7157053
2	0x3f542246	0.828648
3	0x3f4f6499	0.81012875
4	0x3f0f10a8	0.5588479
5	0x3f8165cf	1.0109195
6	0x3eb0812c	0.3447355
7	0xbe13ec2e	-0.14445564

l2.weight f4 [8, 8]
0	0x3f558811	0.83410746
1	0xbf84712a	-1.0347035
2	0x3f8b16de	1.0866354
3	0xbf1ee9c2	-0.62075436
4	0xbdabfd1d	-0.08397887
5	0x3f470062	0.7773496
6	0xbdb90b75	-0.090353884
7	0x3e44a1d9	0.19202365
8	0x3e70da6d	0.23520823
9	0xbc47008e	-0.012146128
10	0x3f980a39	1.187812
11	0x3d924dfb	0.0714378
12	0x3f0d13c2	0.55108273
13	0xbddcd114	-0.10782066
14	0xbfbedf76	-1.4911945
15	0x3e360aca	0.17777553
16	0x3fb0179e	1.3757207
17	0xbeeebff4	-0.46630824
18	0x3f84787d	1.034927
19	0x3f2ac074	0.6669991
20	0x3e4b8604	0.19875342
21	0x3f864b67	1.0491761
22	0xbf5ee93a	-0.87074625
23	0xbe53c533	-0.20680694
24	0x3e24c286	0.1608983
25	0x3f951704	1.1647649
26	0xbda2d263	-0.07950284
27	0x3fc996a9	1.5749103
28	0xbeea4b0f	-0.4576039
29	0x3dbd66b6	0.09248106
30	0xbf3da330	-0.7407713
31	0x3e5e3a54	0.21701938
32	0x3f907cfd	1.1288143
33	0x3f1eab70	0.6198034
34	0x3eb2a646	0.34892482
35	0x3f1e1b4e	0.61760414
36	0xbf84cdf5	-1.0375353
37	0xbf3a858b	-0.7286002
38	0xbe86fea9	-0.26366165
39	0xbdd1da8a	-0.10246761
40	0x3d023af8	0.03179452
41	0xbe31c112	-0.17358807
42	0xbd86d5fa	-0.065837815
43	0xbe88ae48	-0.26695466
44	0x3e43236a	0.19056478
45	0xbea36105	-0.31909958
46	0x3e5c2c3f	0.21501254
47	0xbda19634	-0.07889977
48	0x3f683a5c	0.9071405
49	0x3eb30fe8	0.34973073
50	0x3f560559	0.8360191
51	0x3d2de38b	0.04245333
52	0x3f183e9d	0.5947054
53	0xbf2dcbd3	-0.67889136
54	0xbf2bb8b6	-0.6707872
55	0xbd308a60	-0.043100715
56	0xbfadd25b	-1.357982
57	0x3f602071	0.875495
58	0x3f81cfce	1.0141542
59	0x3f120798	0.5704284
60	0x3f9ed08c	1.2407393
61	0x3f59c4ab	0.85065717
62	0x3f7788a5	0.9669288
63	0xbe91cc70	-0.28476286

l2.bias f4 [8]
0	0x3f702a79	0.9381481
1	0xbf1010cc	-0.5627563
2	0x3eb4c06a	0.3530305
3	0x3f7e225d	0.99271184
4	0xbc45f70d	-0.012082827
5	0xbea66278	-0.32497
6	0xbf261e13	-0.6488964
7	0xbd1f511f	-0.038895722

l3.weight f4 [8, 8]
0	0xbf9dad44	-1.2318501
1	0xbfc2c14d	-1.5215241
2	0xbed4818d	-0.4150509
3	0xbf8a8fff	-1.0825194
4	0xbf521685	-0.8206561
5	0xbea2ad81	-0.31772998
6	0xbf54f4e0	-0.8318615
7	0x3f5d0866	0.8634094
8	0xbedba711	-0.429009
9	0xbfc3757d	-1.527023
10	0xbfaa8ba0	-1.332386
11	0x3f6d6a70	0.92740536
12	0xbe92fb9a	-0.28707582
13	0x3e9360ba	0.28784734
14	0xbfc6a785	-1.5519873
15	0x3e2cb49d	0.16865773
16	0x3f4d9825	0.8031028
17	0xbf96df70	-1.1786938
18	0x3f18f274	0.59744954
19	0x3f39af5f	0.7253322
20	0xbe98fa62	-0.29878527
21	0xbe31089c	-0.1728844
22	0xbffff450	-1.9996433
23	0xbfc7faca	-1.562341
24	0xbf3f4fa0	-0.74730873
25	0x3f9c0952	1.2190344
26	0x3edd38f6	0.4320752
27	0x3e9f66f5	0.31133237
28	0xbfc063c9	-1.5030452
29	0x3df28307	0.11841398
30	0xbf37ae5b	-0.7175042
31	0x3e0cf238	0.13764274
32	0xbf9a92d0	-1.2076054
33	0x3f697e24	0.912081
34	0x3eb2a257	0.3488948
35	0xbdb2f90a	-0.08738907
36	0x3eaa6cb0	0.33286047
37	0x3e8fcfc9	0.28088215
38	0x3ecbeae0	0.39827633
39	0xbfad6f24	-1.3549542
40	0x3eda3994	0.42622054
41	0x3f257b68	0.6464143
42	0x3f02b98e	0.51064384
43	0xbfdad698	-1.7096739
44	0xbe6a6b09	-0.22892393
45	0xbe201ca9	-0.15635933
46	0x3eaa4238	0.33253646
47	0xbf842091	-1.0322438
48	0xbfe05836	-1.752692
49	0xbf97c5f0	-1.1857281
50	0x3d481a63	0.04885329
51	0x3f565bf1	0.8373404
52	0x3e9f5f1a	0.31127244
53	0xbe479de4	-0.19493824
54	0xbdf6f532	-0.12058486
55	0xbf8ef1bd	-1.1167523
56	0x3f5ebbb6	0.87005174
57	0xbfaeab9c	-1.3646121
58	0x3eb9be3f	0.3627796
59	0xbfb085af	-1.3790797
60	0xbf9b0952	-1.2112219
61	0x3e7b89a9	0.24564232
62	0xbf785892	-0.9701015
63	0x3e9763d3	0.29568347

l3.bias f4 [8]
0	0xbc69cd0e	-0.01427008
1	0x3dbf8463	0.09351423
2	0x3efb7b45	0.49117485
3	0xbea9726a	-0.33095104
4	0xbe497a8c	-0.19675654
5	0x3e17d6c2	0.14828017
6	0x3e0378e9	0.12839092
7	0xbeab8c47	-0.3350546
